2020-10-06 18:25:20,490: <INFO> Training autoencoder v3: attempt 0
2020-10-06 18:25:20,491: <INFO> Model: "autoencoder-v3"
2020-10-06 18:25:20,492: <INFO> _________________________________________________________________
2020-10-06 18:25:20,493: <INFO> Layer (type)                 Output Shape              Param #   
2020-10-06 18:25:20,494: <INFO> =================================================================
2020-10-06 18:25:20,496: <INFO> conv1 (Conv2D)               (None, 32, 32, 4)         52        
2020-10-06 18:25:20,496: <INFO> _________________________________________________________________
2020-10-06 18:25:20,497: <INFO> conv1-leaky (LeakyReLU)      (None, 32, 32, 4)         0         
2020-10-06 18:25:20,499: <INFO> _________________________________________________________________
2020-10-06 18:25:20,500: <INFO> conv2 (Conv2D)               (None, 16, 16, 10)        170       
2020-10-06 18:25:20,501: <INFO> _________________________________________________________________
2020-10-06 18:25:20,501: <INFO> conv2-leaky (LeakyReLU)      (None, 16, 16, 10)        0         
2020-10-06 18:25:20,502: <INFO> _________________________________________________________________
2020-10-06 18:25:20,503: <INFO> conv3 (Conv2D)               (None, 8, 8, 20)          820       
2020-10-06 18:25:20,503: <INFO> _________________________________________________________________
2020-10-06 18:25:20,504: <INFO> conv3-leaky (LeakyReLU)      (None, 8, 8, 20)          0         
2020-10-06 18:25:20,504: <INFO> _________________________________________________________________
2020-10-06 18:25:20,505: <INFO> deconv3 (Conv2DTranspose)    (None, 16, 16, 10)        810       
2020-10-06 18:25:20,506: <INFO> _________________________________________________________________
2020-10-06 18:25:20,507: <INFO> deconv3-leaky (LeakyReLU)    (None, 16, 16, 10)        0         
2020-10-06 18:25:20,507: <INFO> _________________________________________________________________
2020-10-06 18:25:20,508: <INFO> deconv2 (Conv2DTranspose)    (None, 32, 32, 4)         164       
2020-10-06 18:25:20,509: <INFO> _________________________________________________________________
2020-10-06 18:25:20,510: <INFO> deconv2-leaky (LeakyReLU)    (None, 32, 32, 4)         0         
2020-10-06 18:25:20,510: <INFO> _________________________________________________________________
2020-10-06 18:25:20,511: <INFO> deconv1 (Conv2DTranspose)    (None, 64, 64, 3)         51        
2020-10-06 18:25:20,512: <INFO> _________________________________________________________________
2020-10-06 18:25:20,512: <INFO> deconv1-sigmoid (Activation) (None, 64, 64, 3)         0         
2020-10-06 18:25:20,513: <INFO> =================================================================
2020-10-06 18:25:20,515: <INFO> Total params: 2,067
2020-10-06 18:25:20,515: <INFO> Trainable params: 1,630
2020-10-06 18:25:20,515: <INFO> Non-trainable params: 437
2020-10-06 18:25:20,516: <INFO> _________________________________________________________________
2020-10-06 18:25:23,618: <INFO> Epoch 0, loss 0.009070, change 0.009070, grad norm 0.030004
…
